==========================================================================================
Layer (type:depth-idx)                   Output Shape              Param #
==========================================================================================
BiLSTMModel                              [128, 1]                  --
├─LSTM: 1-1                              [128, 13, 128]            34,304
├─LayerNorm: 1-2                         [128, 13, 128]            256
├─Dropout: 1-3                           [128, 13, 128]            --
├─Linear: 1-4                            [128, 1]                  129
==========================================================================================
Total params: 34,689
Trainable params: 34,689
Non-trainable params: 0
Total mult-adds (Units.MEGABYTES): 57.13
==========================================================================================
Input size (MB): 0.01
Forward/backward pass size (MB): 3.41
Params size (MB): 0.14
Estimated Total Size (MB): 3.55
…
