==========================================================================================
Layer (type:depth-idx)                   Output Shape              Param #
==========================================================================================
CNNModel                                 [128, 1]                  --
├─Conv1d: 1-1                            [128, 16, 11]             64
├─MaxPool1d: 1-2                         [128, 16, 5]              --
├─Dropout: 1-3                           [128, 16, 5]              --
├─Conv1d: 1-4                            [128, 32, 3]              1,568
├─MaxPool1d: 1-5                         [128, 32, 1]              --
├─Dropout: 1-6                           [128, 32, 1]              --
├─Linear: 1-7                            [128, 64]                 2,112
├─Dropout: 1-8                           [128, 64]                 --
├─Linear: 1-9                            [128, 1]                  65
==========================================================================================
Total params: 3,809
Trainable params: 3,809
Non-trainable params: 0
Total mult-adds (Units.MEGABYTES): 0.97
==========================================================================================
Input size (MB): 0.01
Forward/backward pass size (MB): 0.35
Params size (MB): 0.02
Estimated Total Size (MB): 0.37
…
